…
type=TaskType.SEQ_2_SEQ_LM,     prompt_tuning_init=PromptTuningInit.TEXT,     num_virtual_tokens=20,     prompt_tuning_init_text=""What is the sentiment of this article?\n"",     inference_mode=False,     tokenizer_name_or_path=model_name_or_path, ) model = AutoModelForSeq2SeqLM.from_pretrained(model_name_or_path) model = get_peft_model(model, peft_config) model.print_trainable_parameters() ``` **Expected behavior / 预期结果 (Mandatory / 必填)** A clear and concise description of what you expected to happen. torch输出结果 ``` PeftModelForSeq2SeqLM(   (base_model): T5ForConditionalGeneration(     (shared): Embedding(32128, 1024)     (encoder): T5Stack(       (embed_tokens): Embedding(32128, 1024)       (block): ModuleList(         (0): T5Block(           (layer): ModuleList(             (0): T5LayerSelfAttention(               (SelfAttention): T5Attention(                 (q): Linear(in_features=1024, out_features=1024, bias=False)                 (k): Linear(in_features=1024, out_features=1024, bias=False)                 (v): Linear(in_features=1024, out_features=1024, bias=False)                 (o): Linear(in_features=1024, out_features=1024, bias=False)                 (relative_attention_bias): Embedding(32, 16)               )               (layer_norm): T5LayerNorm()               (dropout): Dropout(p=0.1, inplace=False)             )             (1): T5LayerFF(               (DenseReluDense): T5DenseActDense(                 (wi): Linear(in_features=1024, out_features=4096, bias=False)                 (wo): Linear(in_features=4096, out_features=1024, bias=False)                 (dropout): Dropout(p=0.1, inplace=False)                 (act): ReLU()               )               (layer_norm): T5LayerNorm()               (dropout): Dropout(p=0.1, inplace=False)             )           )         )         (123): 23 x T5Block(           (layer): ModuleList(             (0): T5LayerSelfAttention(               (SelfAttention): T5Attention(                 (q): Linear(in_features=1024, out_features=1024, bias=False)                 (k): Linear(in_features=1024, out_features=1024, bias=False)                 (v): Linear(in_features=1024, out_features=1024, bias=False)                 (o): Linear(in_features=1024, out_features=1024, bias=False)               )               (layer_norm): T5LayerNorm()               (dropout): Dropout(p=0.1, inplace=False)             )             (1): T5LayerFF(               (DenseReluDense): T5DenseActDense(                 (wi): Linear(in_features=1024, out_features=4096, bias=False)                 (wo): Linear(in_features=4096, out_features=1024, bias=False)                 (dropout): Dropout(p=0.1, inplace=False)                 (act): ReLU()               )               (layer_norm): T5LayerNorm()               (dropout): Dropout(p=0.1, inplace=False)             )           )         )       )       (final_layer_norm): T5LayerNorm()       (dropout): Dropout(p=0.1, inplace=False)     )     (decoder): T5Stack(       (embed_tokens): Embedding(32128, 1024)       (block): ModuleList(         (0): T5Block(           (layer): ModuleList(             (0): T5LayerSelfAttention(               (SelfAttention): T5Attention(                 (q): Linear(in_features=1024, out_features=1024, bias=False)                 (k): Linear(in_features=1024, out_features=1024, bias=False)                 (v): Linear(in_features=1024, out_features=1024, bias=False)                 (o): Linear(in_features=1024, out_features=1024, bias=False)                 (relative_attention_bias): Embedding(32, 16)               )               (layer_norm): T5LayerNorm()               (dropout): Dropout(p=0.1, inplace=False)             )             (1): T5LayerCrossAttention(               (EncDecAttention): T5Attention(                 (q): Linear(in_features=1024, out_features=1024, bias=False)                 (k): Linear(in_features=1024, out_features=1024, bias=False)                 (v): Linear(in_features=1024, out_features=1024, bias=False)                 (o): Linear(in_features=1024, out_features=1024, bias=False)               )               (layer_norm): T5LayerNorm()               (dropout): Dropout(p=0.1, inplace=False)             )             (2): T5LayerFF(               (DenseReluDense): T5DenseActDense(                 (wi): Linear(in_features=1024, out_features=4096, bias=False)                 (wo): Linear(in_features=4096, out_features=1024, bias=False)                 (dropout): Dropout(p=0.1, inplace=False)                 (act): ReLU()               )               (layer_norm): T5LayerNorm()               (dropout): Dropout(p=0.1, inplace=False)             )           )         )         (123): 23 x T5Block(           (layer): ModuleList(             (0): T5LayerSelfAttention(               (SelfAttention): T5Attention(                 (q): Linear(in_features=1024, out_features=1024, bias=False)                 (k): Linear(in_features=1024, out_features=1024, bias=False)                 (v): Linear(in_features=1024, out_features=1024, bias=False)                 (o): Linear(in_features=1024, out_features=1024, bias=False)               )               (layer_norm): T5LayerNorm()               (dropout): Dropout(p=0.1, inplace=False)             )             (1): T5LayerCrossAttention(               (EncDecAttention): T5Attention(                 (q): Linear(in_features=1024, out_features=1024, bias=False)                 (k): Linear(in_features=1024, out_features=1024, bias=False)                 (v): Linear(in_features=1024, out_features=1024, bias=False)                 (o): Linear(in_features=1024, out_features=1024, bias=False)               )               (layer_norm): T5LayerNorm()               (dropout): Dropout(p=0.1, inplace=False)             )             (2): T5LayerFF(               (DenseReluDense): T5DenseActDense(                 (wi): Linear(in_features=1024, out_features=4096, bias=False)                 (wo): Linear(in_features=4096, out_features=1024, bias=False)                 (dropout): Dropout(p=0.1, inplace=False)                 (act): ReLU()               )               (layer_norm): T5LayerNorm()               (dropout): Dropout(p=0.1, inplace=False)             )           )         )       )       (final_layer_norm): T5LayerNorm()       (dropout): Dropout(p=0.1, inplace=False)     )     (lm_head): Linear(in_features=1024, out_features=32128, bias=False)   )   (prompt_encoder): ModuleDict(     (default): PromptEmbedding(       (embedding): Embedding(40, 1024)     )   )   (word_embeddings): Embedding(32128, 1024) ) ``` **Screenshots/ 日志 / 截图 (Mandatory / 必填)** If applicable, add screenshots to help explain your problem. !image !image **Additional context / 备注 (Optional / 选填)** Add any other context about the problem here.",2024-11-15T12:48:50Z,bug,open,0,0,https://github.com/mindspore-lab/mindnlp/issues/1820
这个issue属于用户提出需求类型，主要涉及对象是将baichuan2模型迁移。原因是用户需要进行迁移操作。,baichuan2模型迁移,**Is your feature request related to a problem? Please describe.** 需要迁移baichuan2模型 **Describe the solution you'd like** **Describe alternatives you've considered** **Additional context**,2024-11-15T11:34:06Z,,open,0,0,https://github.com/mindspore-lab/mindnlp/issues/1819
…
